
----------------------New Training----------------------
Parameters:
	MAX_MEMORY: 100000
	MAX_MEMORY_INITIAL: 20000
	BATCH_SIZE: 500
	LR: 0.001
	gamma: 0.995
	model: Linear_QNet(
  (linear1): Linear(in_features=11, out_features=16, bias=True)
  (linear2): Linear(in_features=16, out_features=16, bias=True)
  (linear3): Linear(in_features=16, out_features=16, bias=True)
  (linear4): Linear(in_features=16, out_features=4, bias=True)
)
	final_epsilon: 0.1
	num_decay_epochs: 300
--------------------------------------------------------
Game: 100 -- Average reward: -9.85
Game: 200 -- Average reward: -9.825
Game: 300 -- Average reward: -9.666666666666666
Game: 400 -- Average reward: -9.6125
Game: 500 -- Average reward: -9.6

----------------------New Training----------------------
Parameters:
	MAX_MEMORY: 100000
	MAX_MEMORY_INITIAL: 20000
	BATCH_SIZE: 2000
	LR: 0.01
	gamma: 0.995
	model: Linear_QNet(
  (linear1): Linear(in_features=11, out_features=32, bias=True)
  (linear2): Linear(in_features=32, out_features=32, bias=True)
  (linear3): Linear(in_features=32, out_features=16, bias=True)
  (linear4): Linear(in_features=16, out_features=4, bias=True)
)
	final_epsilon: 0.1
	num_decay_epochs: 1000
--------------------------------------------------------
Game: 100 -- Average reward: -9.5
Game: 200 -- Average reward: -9.55
Game: 300 -- Average reward: -9.616666666666667
Game: 400 -- Average reward: -9.6
Game: 500 -- Average reward: -9.57
Game: 600 -- Average reward: -9.583333333333334
Game: 700 -- Average reward: -9.57857142857143
…
Game: 4300 -- Average reward: -9.837209302325581
Game: 4400 -- Average reward: -9.840909090909092
Game: 4500 -- Average reward: -9.84
Game: 4600 -- Average reward: -9.842391304347826
Game: 4700 -- Average reward: -9.842553191489362
Game: 4800 -- Average reward: -9.839583333333334
Game: 4900 -- Average reward: -9.841836734693878
Game: 5000 -- Average reward: -9.844
Game: 5100 -- Average reward: -9.845098039215687

----------------------New Training----------------------
Parameters:
	MAX_MEMORY: 100000
	MAX_MEMORY_INITIAL: 20000
	BATCH_SIZE: 2000
	LR: 0.01
	gamma: 0.995
	model: Linear_QNet(
  (linear1): Linear(in_features=11, out_features=64, bias=True)
  (linear2): Linear(in_features=64, out_features=64, bias=True)
  (linear4): Linear(in_features=64, out_features=4, bias=True)
)
	final_epsilon: 0.1
	num_decay_epochs: 1000
--------------------------------------------------------
Game: 100 -- Average reward: -9.35

----------------------New Training----------------------
Parameters:
	MAX_MEMORY: 100000
	MAX_MEMORY_INITIAL: 20000
	BATCH_SIZE: 1000
	LR: 0.001
	gamma: 0.995
	model: Linear_QNet(
  (linear1): Linear(in_features=11, out_features=128, bias=True)
  (linear2): Linear(in_features=128, out_features=128, bias=True)
  (linear4): Linear(in_features=128, out_features=4, bias=True)
)
	final_epsilon: 0.1
	num_decay_epochs: 100
--------------------------------------------------------
Game: 100 -- Average reward: -9.6

----------------------New Training----------------------
Parameters:
	MAX_MEMORY: 100000
	MAX_MEMORY_INITIAL: 20000
	BATCH_SIZE: 1000
	LR: 0.001
	gamma: 0.995
	model: Linear_QNet(
  (linear1): Linear(in_features=11, out_features=256, bias=True)
  (linear2): Linear(in_features=256, out_features=128, bias=True)
  (linear4): Linear(in_features=128, out_features=4, bias=True)
)
	final_epsilon: 0.1
	num_decay_epochs: 100
--------------------------------------------------------

----------------------New Training----------------------
Parameters:
	MAX_MEMORY: 100000
	MAX_MEMORY_INITIAL: 20000
	BATCH_SIZE: 1000
	LR: 0.001
	gamma: 0.995
	model: Linear_QNet(
  (linear1): Linear(in_features=11, out_features=256, bias=True)
  (linear2): Linear(in_features=256, out_features=256, bias=True)
  (linear4): Linear(in_features=256, out_features=4, bias=True)
)
	final_epsilon: 0.1
	num_decay_epochs: 100
--------------------------------------------------------

----------------------New Training----------------------
Parameters:
	MAX_MEMORY: 100000
	MAX_MEMORY_INITIAL: 20000
	BATCH_SIZE: 1000
	LR: 0.001
	gamma: 0.995
	model: Linear_QNet(
  (linear1): Linear(in_features=11, out_features=256, bias=True)
  (linear2): Linear(in_features=256, out_features=256, bias=True)
  (linear4): Linear(in_features=256, out_features=4, bias=True)
)
	final_epsilon: 0.1
	num_decay_epochs: 100
--------------------------------------------------------
Game: 100 -- Average reward: -9.4

----------------------New Training----------------------
Parameters:
	MAX_MEMORY: 100000
	MAX_MEMORY_INITIAL: 20000
	BATCH_SIZE: 1000
	LR: 0.001
	gamma: 0.995
	model: Linear_QNet(
  (linear1): Linear(in_features=11, out_features=256, bias=True)
  (linear2): Linear(in_features=256, out_features=256, bias=True)
  (linear4): Linear(in_features=256, out_features=4, bias=True)
)
	final_epsilon: 0.1
	num_decay_epochs: 100
--------------------------------------------------------

----------------------New Training----------------------
Parameters:
	MAX_MEMORY: 100000
	MAX_MEMORY_INITIAL: 20000
	BATCH_SIZE: 1000
	LR: 0.001
	gamma: 0.9
	model: Linear_QNet(
  (linear1): Linear(in_features=11, out_features=256, bias=True)
  (linear2): Linear(in_features=256, out_features=4, bias=True)
)
	final_epsilon: 0.1
	num_decay_epochs: 100
--------------------------------------------------------
Game: 100 -- Average reward: -5.5
Game: 200 -- Average reward: 11.6

----------------------New Training----------------------
Parameters:
	MAX_MEMORY: 100000
	MAX_MEMORY_INITIAL: 20000
	BATCH_SIZE: 1000
	LR: 0.001
	gamma: 0.9
	model: Linear_QNet(
  (linear1): Linear(in_features=11, out_features=256, bias=True)
  (linear2): Linear(in_features=256, out_features=4, bias=True)
)
	final_epsilon: 0.1
	num_decay_epochs: 100
--------------------------------------------------------

----------------------New Training----------------------
Parameters:
	MAX_MEMORY: 100000
	MAX_MEMORY_INITIAL: 20000
	BATCH_SIZE: 1000
	LR: 0.001
	gamma: 0.9
	model: Linear_QNet(
  (linear1): Linear(in_features=11, out_features=256, bias=True)
  (linear2): Linear(in_features=256, out_features=4, bias=True)
)
	final_epsilon: 0.1
	num_decay_epochs: 100
--------------------------------------------------------
Game: 100 -- Average reward: -3.7
Game: 200 -- Average reward: 13.7

----------------------New Training----------------------
Parameters:
	MAX_MEMORY: 100000
	MAX_MEMORY_INITIAL: 20000
	BATCH_SIZE: 1000
	LR: 0.001
	gamma: 0.9
	model: Linear_QNet(
  (linear1): Linear(in_features=11, out_features=256, bias=True)
  (linear2): Linear(in_features=256, out_features=128, bias=True)
  (linear3): Linear(in_features=128, out_features=4, bias=True)
)
	final_epsilon: 0.1
	num_decay_epochs: 100
--------------------------------------------------------
Game: 100 -- Average reward: -8.6

----------------------New Training----------------------
Parameters:
	MAX_MEMORY: 100000
	MAX_MEMORY_INITIAL: 20000
	BATCH_SIZE: 1000
	LR: 0.001
	gamma: 0.9
	model: Linear_QNet(
  (linear1): Linear(in_features=11, out_features=128, bias=True)
  (linear2): Linear(in_features=128, out_features=128, bias=True)
  (linear3): Linear(in_features=128, out_features=4, bias=True)
)
	final_epsilon: 0.1
	num_decay_epochs: 1000
--------------------------------------------------------

----------------------New Training----------------------
Parameters:
	MAX_MEMORY: 100000
	MAX_MEMORY_INITIAL: 20000
	BATCH_SIZE: 1000
	LR: 0.001
	gamma: 0.9
	model: Linear_QNet(
  (linear1): Linear(in_features=11, out_features=128, bias=True)
  (linear2): Linear(in_features=128, out_features=128, bias=True)
  (linear3): Linear(in_features=128, out_features=4, bias=True)
)
	final_epsilon: 0.1
	num_decay_epochs: 300
--------------------------------------------------------
Game: 100 -- Average reward: -8.9
Game: 200 -- Average reward: -8.95

----------------------New Training----------------------
Parameters:
	MAX_MEMORY: 100000
	MAX_MEMORY_INITIAL: 20000
	BATCH_SIZE: 1000
	LR: 0.01
	gamma: 0.95
	model: Linear_QNet(
  (linear1): Linear(in_features=11, out_features=128, bias=True)
  (linear2): Linear(in_features=128, out_features=128, bias=True)
  (linear3): Linear(in_features=128, out_features=4, bias=True)
)
	final_epsilon: 0.1
	num_decay_epochs: 100
--------------------------------------------------------
Game: 100 -- Average reward: -9.5

----------------------New Training----------------------
Parameters:
	MAX_MEMORY: 100000
	MAX_MEMORY_INITIAL: 20000
	BATCH_SIZE: 1000
	LR: 0.001
	gamma: 0.9
	model: Linear_QNet(
  (linear1): Linear(in_features=11, out_features=256, bias=True)
  (linear2): Linear(in_features=256, out_features=4, bias=True)
)
	final_epsilon: 0.1
	num_decay_epochs: 100
--------------------------------------------------------
Game: 100 -- Average reward: -5.4
Game: 200 -- Average reward: 15.25
Game: 300 -- Average reward: 22.333333333333332
Game: 400 -- Average reward: 26.45
Game: 500 -- Average reward: 29.72
Game: 600 -- Average reward: 31.233333333333334
Game: 700 -- Average reward: 31.571428571428573
…
Game: 1800 -- Average reward: 25.633333333333333
Game: 1900 -- Average reward: 26.1
Game: 2000 -- Average reward: 26.475
Game: 2100 -- Average reward: 26.409523809523808
Game: 2200 -- Average reward: 26.30909090909091
Game: 2300 -- Average reward: 25.795652173913044
Game: 2400 -- Average reward: 25.579166666666666
Game: 2500 -- Average reward: 25.42
Game: 2600 -- Average reward: 25.41923076923077
Game: 2700 -- Average reward: 25.581481481481482

----------------------New Training----------------------
Parameters:
	MAX_MEMORY: 100000
	MAX_MEMORY_INITIAL: 20000
	BATCH_SIZE: 1000
	LR: 0.001
	gamma: 0.9
	model: Linear_QNet(
  (linear1): Linear(in_features=11, out_features=256, bias=True)
  (linear2): Linear(in_features=256, out_features=256, bias=True)
  (linear3): Linear(in_features=256, out_features=4, bias=True)
)
	final_epsilon: 0.1
	num_decay_epochs: 100
--------------------------------------------------------
Game: 100 -- Average reward: -8.5
Game: 200 -- Average reward: 1.4
Game: 300 -- Average reward: 11.133333333333333
Game: 400 -- Average reward: 16.0
Game: 500 -- Average reward: 19.78
Game: 600 -- Average reward: 22.7
Game: 700 -- Average reward: 24.071428571428573
Game: 800 -- Average reward: 26.075
Game: 900 -- Average reward: 26.966666666666665




----------------------New Training----------------------
Parameters:
	MAX_MEMORY: 100000
	MAX_MEMORY_INITIAL: 20000
	BATCH_SIZE: 1000
	LR: 0.001
	gamma: 0.9
	model: Linear_QNet(
  (linear1): Linear(in_features=11, out_features=256, bias=True)
  (linear4): Linear(in_features=256, out_features=4, bias=True)
)
	final_epsilon: 0.1
	num_decay_epochs: 100
--------------------------------------------------------
Game: 100 -- Average reward: -5.3
Game: 200 -- Average reward: 10.9
Game: 300 -- Average reward: 20.833333333333332

----------------------New Training----------------------
Parameters:
	MAX_MEMORY: 100000
	MAX_MEMORY_INITIAL: 20000
	BATCH_SIZE: 1000
	LR: 0.001
	gamma: 0.9
	model: Linear_QNet(
  (linear1): Linear(in_features=11, out_features=256, bias=True)
  (linear4): Linear(in_features=256, out_features=4, bias=True)
)
	final_epsilon: 0.1
	num_decay_epochs: 100
--------------------------------------------------------
Game: 100 -- Average reward: -5.4
Game: 200 -- Average reward: 17.25
Game: 300 -- Average reward: 34.56666666666667
Game: 400 -- Average reward: 44.65
Game: 500 -- Average reward: 52.9
Game: 600 -- Average reward: 56.7
Game: 700 -- Average reward: 59.68571428571428
Game: 800 -- Average reward: 60.4875
Game: 900 -- Average reward: 61.544444444444444
Game: 1000 -- Average reward: 60.98

----------------------New Training----------------------
Parameters:
	MAX_MEMORY: 100000
	MAX_MEMORY_INITIAL: 20000
	BATCH_SIZE: 1000
	LR: 0.001
	gamma: 0.9
	model: Linear_QNet(
  (linear1): Linear(in_features=11, out_features=64, bias=True)
  (linear4): Linear(in_features=64, out_features=4, bias=True)
)
	final_epsilon: 0.1
	num_decay_epochs: 100
--------------------------------------------------------
Game: 100 -- Average reward: -8.2
Game: 200 -- Average reward: 1.4
Game: 300 -- Average reward: 13.2
Game: 400 -- Average reward: 23.825
Game: 500 -- Average reward: 31.62
Game: 600 -- Average reward: 37.9

----------------------New Training----------------------
Parameters:
	MAX_MEMORY: 100000
	MAX_MEMORY_INITIAL: 20000
	BATCH_SIZE: 1000
	LR: 0.001
	gamma: 0.95
	model: Linear_QNet(
  (linear1): Linear(in_features=11, out_features=64, bias=True)
  (linear2): Linear(in_features=64, out_features=64, bias=True)
  (linear3): Linear(in_features=64, out_features=64, bias=True)
  (linear4): Linear(in_features=64, out_features=4, bias=True)
)
	final_epsilon: 0.1
	num_decay_epochs: 100
--------------------------------------------------------
Game: 100 -- Average reward: -9.7

----------------------New Training----------------------
Parameters:
	MAX_MEMORY: 100000
	MAX_MEMORY_INITIAL: 20000
	BATCH_SIZE: 1000
	LR: 0.001
	gamma: 0.95
	model: Linear_QNet(
  (linear1): Linear(in_features=11, out_features=8, bias=True)
  (linear4): Linear(in_features=8, out_features=4, bias=True)
)
	final_epsilon: 0.1
	num_decay_epochs: 100
--------------------------------------------------------
Game: 100 -- Average reward: -9.1

----------------------New Training----------------------
Parameters:
	MAX_MEMORY: 100000
	MAX_MEMORY_INITIAL: 20000
	BATCH_SIZE: 1000
	LR: 0.001
	gamma: 0.9
	model: Linear_QNet(
  (linear1): Linear(in_features=11, out_features=2048, bias=True)
  (linear4): Linear(in_features=2048, out_features=4, bias=True)
)
	final_epsilon: 0.1
	num_decay_epochs: 100
--------------------------------------------------------
----------------------New Training----------------------
2021-04-25 11:16:39.778587
Parameters:
	MAX_MEMORY: 100000
	MAX_MEMORY_INITIAL: 20000
	BATCH_SIZE: 1000
	LR: 0.001
	gamma: 0.9
	model: Linear_QNet(
  (linear1): Linear(in_features=11, out_features=256, bias=True)
  (linear4): Linear(in_features=256, out_features=4, bias=True)
)
	final_epsilon: 0.1
	num_decay_epochs: 100
--------------------------------------------------------
Game: 100 -- Average reward: -3.5
